models/word2vec.pt (torch, 5357 bytes, 2 tensors)

input_embeddings.weight f4 [4, 100]
0.56335086 -1.6549675 -0.7789973 -0.22629113 0.30281547 1.5693444 0.22985034 0.89989793
1.0166235 -0.0963658 -1.0731816 -0.44126478 -0.17233273 -0.37910882 -0.39864093 0.5932985
0.17552534 1.4800855 0.32156423 1.3306298 0.19749466 -0.7208822 0.69357795 0.97297496
1.8271512 1.3150883 -0.035422143 0.18520923 -0.6176427 -1.0225818 0.13540992 0.714492
-0.12646149 0.42946142 -0.47006547 -0.3161642 0.29867598 -1.4493874 0.21159434 -0.078073375
-1.8489318 0.79130197 2.4308634 -1.9047636 -0.57896143 -0.032952614 -0.0504509 0.5352083
-2.1430664 0.6507142 0.71608263 0.092219055 1.544386 0.6971223 0.1533642 -0.6525911
-0.33695334 0.83605105 -0.027180426 -1.078473 -0.42186058 -1.0752287 0.7921118 0.48128393
-0.29644588 1.753897 0.64980996 -0.6531183 0.22760116 -0.34030363 -0.2913484 -0.8409255
0.6700279 0.021629747 -0.5699966 -2.0322452 -0.06392182 0.9262025 -0.4163849 -0.5717912
0.19180478 0.12216399 -1.4681132 0.9340295 0.41677427 -0.64771885 -0.61043507 -1.0128495
0.37128913 -0.7133909 -0.83532 -1.3190291 0.98752826 0.6826352 -0.029301785 -1.0210532
1.2893722 -0.12981771 1.4711733 -0.7786972 -1.810487 -1.3425225 -0.435096 0.23767775
-0.74774396 0.8654198 -1.1135409 -1.2239565 -0.048644524 -0.13396142 -1.2799399 -0.92369825
0.18563183 1.2205204 -1.8168621 0.77300954 -1.2816603 2.3423069 -0.41248772 1.1470367
-0.39539438 -0.030694911 -0.4703709 1.4564433 -0.5051724 -0.46999526 -0.0653852 0.43510884
0.8084722 1.2716042 1.0585804 -0.77611184 0.35466698 0.8243122 0.3363339 1.1540195
0.6314565 0.31449836 -0.8451686 0.5093527 -0.44539058 0.7171504 -1.195013 -0.2587516
0.51099336 -1.4168769 1.2705964 0.21630265 -1.1537826 -1.3087635 1.9055189 1.1678615
0.9760806 1.4637945 0.6547091 1.2556276 -0.4506079 1.5911423 -0.0625994 -1.4220665
-0.5523034 0.346813 0.007908054 -0.94908696 -1.0248154 1.0175463 0.28720513 -0.35806715
1.6866652 -0.8640001 -0.9709675 0.6332101 -0.013685998 0.8017626 1.5551465 0.89497316
1.9207406 -0.035602216 0.19554968 1.6543928 -0.8291198 2.2348185 -0.20619376 0.07984079
-1.0841649 0.408168 -0.4770835 1.1494982 -0.51419526 0.18533134 0.09667243 0.81145704
0.34577414 0.04307651 -0.28076774 -0.6545431 -2.4136055 1.151066 -0.47838393 -0.26553765
0.9113817 -1.3052362 -0.3256177 1.3949903 0.1589423 2.1809924 0.5860353 0.2782168
-0.5267289 0.591612 -0.14888382 -2.6041057 -0.045772728 -0.20377915 0.6261956 0.66934764
-0.6386628 0.13777693 0.74415296 -0.2877109 -0.52562374 -0.0930318 -0.69604874 1.0856729
1.7010925 0.8663596 0.2797438 0.6507176 0.07840924 -0.17855307 -1.396558 -1.2591982
-0.25349042 -2.204491 1.4536936 0.0017410135 -0.9704699 -1.1069224 1.3032627 -0.5457149
0.7922258 0.21928942 0.30943143 0.08824571 -0.18559088 0.6841973 0.09142152 -1.6263496
2.161973 -1.2924162 1.1630839 -0.10899442 0.2614248 1.2412372 0.72392124 -0.5712849
00000000: c337 103f fad5 d3bf 5e6c 47bf ddb8 67be
00000010: a10a 9b3e 47e0 c83f e35d 6b3e b65f 663f
00000020: b820 823f 6f5b c5bd 045e 89bf 75ed e1be
00000030: fe77 30be 8d1a c2be aa1a ccbe 69e2 173f
00000040: eabc 333e 7173 bd3f 11a4 a43e 1452 aa3f
00000050: 0a3c 4a3e bc8b 38bf 538e 313f e314 793f
00000060: 17e0 e93f d054 a83f cf16 11bd 7da7 3d3e
00000070: d51d 1ebf f6e3 82bf e6a8 0a3e f3e8 363f
00000080: 1f7f 01be 5ee2 db3e 6cac f0be 46e0 a1be
00000090: 0fec 983e 8785 b9bf 30ac 583e efe4 9fbd
000000a0: cca9 ecbf c492 4a3f 4493 1b40 4bcf f3bf
000000b0: d136 14bf 52f9 06bd 9aa5 4ebd 6903 093f
000000c0: 0028 09c0 3595 263f 3151 373f 58dd bc3d
000000d0: 71ae c53f 9b76 323f 810b 1d3e 3610 27bf
000000e0: 2685 acbe 7107 563f 7ca9 debc 670b 8abf
000000f0: 1cfe d7be 18a1 89bf d7c7 4a3f d96a f63e
00000100: c1c7 97be b27f e03f f259 263f c332 27bf
00000110: 4710 693e 473c aebe 9e2b 95be e546 57bf
00000120: f386 2b3f de30 b13c 4ceb 11bf 4e10 02c0
00000130: 71e9 82bd 9b1b 6d3f 6730 d5be e860 12bf
00000140: 7968 443e 1d31 fa3d 22eb bbbf 8f1c 6f3f
00000150: 7063 d53e e7d0 25bf 7945 1cbf 0da5 81bf
00000160: 9c19 be3e c9a0 36bf 88d7 55bf f2d5 a8bf
00000170: a7ce 7c3f 2ec1 2e3f 4c0a f0bc dfb1 82bf
00000180: 260a a53f efee 04be 684f bc3f b358 47bf
00000190: 0abe e7bf c7d7 abbf e7c4 debe cc61 733e
000001a0: 266c 3fbf 278c 5d3f 8288 8ebf 9baa 9cbf
000001b0: 7b3f 47bd 2f2d 09be 12d5 a3bf 7d77 6cbf
000001c0: 4516 3e3e 033a 9c3f f08e e8bf f4e3 453f
000001d0: 720d a4bf 5be8 1540 9731 d3be 19d2 923f
000001e0: 2271 cabe e573 fbbc 74d4 f0be bc6c ba3f
000001f0: fa52 01bf 38a3 f0be ade8 85bd 96c6 de3e
00000200: 09f8 4e3f edc3 a23f 907f 873f 44af 46bf
00000210: e996 b53e 2006 533f f533 ac3e e9b6 933f
00000220: 22a7 213f ee05 a13e f85c 58bf f064 023f
00000230: 3c0a e4be 2b97 373f 30f6 98bf 177b 84be
00000240: 76d0 023f 395c b5bf e7a2 a23f 717e 5d3e
00000250: 26af 93bf 9085 a7bf 0be8 f33f 7c7c 953f
00000260: 6be0 793f 9e5d bb3f 049b 273f 68b8 a03f
00000270: 14b6 e6be 8daa cb3f 1d34 80bd 4606 b6bf
00000280: c163 0dbf 7991 b13e c890 013c 5df7 72bf
00000290: 272d 83bf f53e 823f 8d0c 933e 9454 b7be
000002a0: a5e4 d73f 1c2f 5dbf 5391 78bf 0f1a 223f
000002b0: 3c3b 60bc 5040 4d3f 0a0f c73f f61c 653f
000002c0: d4da f53f a1d3 11bd 2d3e 483e 25c3 d33f
000002d0: 3241 54bf 4407 0f40 7524 53be 9183 a33d
000002e0: eac5 8abf 65fb d03e 4a44 f4be c222 933f
000002f0: 4da2 03bf 80c7 3d3e 32fc c53d a6bb 4f3f
00000300: 4f09 b13e ff70 303d cac0 8fbe 2390 27bf
00000310: 8378 1ac0 2156 933f bdee f4be 8df4 87be
00000320: 5050 693f fb11 a7bf 5db7 a6be 0b8f b23f
00000330: c5c1 223e 6195 0b40 6906 163f 6f72 8e3e
00000340: b5d7 06bf e273 173f 0075 18be aba9 26c0
00000350: 2f7c 3bbd 7bab 50be 5b4e 203f 5e5a 2b3f
00000360: 687f 23bf 6515 0d3e cf80 3e3f d84e 93be
00000370: 478f 06bf 7587 bebd 4030 32bf 54f7 8a3f
00000380: 66bd d93f bec9 5d3f 943a 8f3e 6e95 263f
00000390: 0695 a03d 9ed6 36be 6ac2 b2bf 682d a1bf
000003a0: 7fc9 81be 6116 0dc0 a212 ba3f b832 e43a
000003b0: b770 78bf a2af 8dbf 50d1 a63f f9b3 0bbf
000003c0: 4fcf 4a3f 688d 603e cc6d 9e3e 2bba b43d
000003d0: 890b 3ebe 8e27 2f3f 353b bb3d 392c d0bf
000003e0: c45d 0a40 e56d a5bf efdf 943f 7738 dfbd
000003f0: 79d9 853e dce0 9e3f e752 393f ba3f 12bf

output_embeddings.weight f4 [4, 100]
-0.61268765 0.9995132 -1.2309985 0.51928544 -0.2104588 0.080224894 0.6026862 -0.5222066
1.6363945 0.9450255 -0.38615447 0.022004725 1.3842244 -1.022815 -0.3238491 0.57370996
-0.66212535 0.54844666 -0.14398272 -0.46203217 -1.9013276 0.948717 -0.1313932 0.26662847
1.4433304 -0.915842 -0.42544684 -0.90492284 0.41686028 -0.98572075 -0.03584868 -0.5597038
-1.237575 -1.5268538 1.1753646 -1.388087 1.2377911 1.590226 -2.5422795 -1.200136
-0.6702206 1.3761859 1.1321473 -1.1410935 0.61181986 -0.90276355 -0.6675396 -0.3558586
0.53997296 -0.31733572 1.291246 1.200329 -2.2728345 0.517034 -0.28830543 -0.19989209
1.5952895 -0.12698773 -2.592007 0.97542864 0.60767823 1.6435399 0.035810303 2.1652122
-0.91558415 0.024558354 -1.6304891 -1.8573318 -0.019690778 1.3888623 -1.8056669 0.9229237
-0.27199823 -0.36606315 0.25352007 0.38236848 -0.6417587 -1.3812777 0.13690229 0.23090358
0.47032598 -0.20724125 0.31686503 -0.67983264 -1.3133831 -0.83615375 0.6865316 -2.3154204
0.07414197 -0.9010386 0.99293995 1.7982781 -2.0168946 0.84137845 -1.5373896 -0.52139574
-0.07451404 0.2446108 2.0681152 -0.14434868 0.7847576 -1.0089327 1.2209499 -0.053982597
1.0293195 1.3014091 1.5283239 -1.6395969 -0.657982 0.9041169 0.90685344 0.230071
-2.0346875 0.88296795 -0.17464529 -0.25937736 1.8911462 1.0433316 -1.013525 -1.6495013
1.2454295 -1.5672226 1.6507312 -0.5291153 -0.8651715 0.36159083 0.2564019 -0.30232766
-1.2413021 0.5464346 -1.9162625 -1.4940252 0.050193783 -0.54623735 0.13702187 -1.7256413
0.39468193 0.27365312 -0.69435173 -0.5728591 0.39094183 -0.8205044 -0.29959878 1.194004
0.44111386 -0.5146703 -0.39325896 -0.61698914 -2.4668128 -0.04771733 -0.798184 0.5276421
0.62293124 0.41950235 0.17595442 -1.2771834 -0.19495627 0.6732183 -0.77395827 -0.8243424
0.6913561 0.021589337 -0.5203258 -0.016792316 0.64865446 -0.33558527 2.2572348 -0.9502708
-1.0727649 1.7882764 0.97281975 -0.055638976 1.0944031 -2.571837 -1.4571612 -0.9891111
-0.47533274 -0.7225824 0.9312472 -0.07055491 -0.63618636 -0.22525409 -0.5599229 -2.1616862
0.07015108 0.05274402 0.8085851 -0.61409205 -0.48622572 -0.46777555 -0.78844553 -0.71076816
0.46630722 -0.9306068 1.2012095 0.66267914 -1.2056792 -1.0066335 0.63722724 -0.6607402
0.2657454 -0.5601727 -2.2738678 0.52683055 1.3924464 0.99389654 1.3498032 0.73322064
-1.1109446 -0.4020419 0.9362082 -1.2271506 -1.2842654 -0.8109651 0.12167887 0.23384283
1.1310408 0.56711215 0.13537483 -0.26292223 1.2900307 0.26362604 0.12590316 0.26725453
-1.2168887 1.0659655 -0.77589244 -0.7315641 0.16604857 -0.73748744 0.38259885 -0.16748728
-0.9385026 1.2197312 1.4805152 1.0544338 0.69204193 0.8775899 0.8496886 1.0475143
-0.5143596 -1.0090448 0.42243463 0.15836412 1.1314 -0.21253689 -0.5604234 0.21733814
0.08894363 -0.33927587 -1.26614 -0.73053056 0.16465598 -0.91477567 -1.3634379 -1.8908346
00000000: 19d9 1cbf 19e0 7f3f 5c91 9dbf e4ef 043f
00000010: 8382 57be f34c a43d a549 1a3f 55af 05bf
00000020: 6075 d13f 31ed 713f 0ab6 c5be 4143 b43c
00000030: 442e b13f 9aeb 82bf 8dcf a5be a8de 123f
00000040: 0c81 29bf 0067 0c3f 3570 13be 7b8f ecbe
00000050: b45e f3bf 1edf 723f f08b 06be 8783 883e
00000060: 0dbf b83f 9f74 6abf 2bd4 d9be 06a9 67bf
00000070: b66e d53e 3258 7cbf 11d6 12bd c048 0fbf
00000080: dc68 9ebf f26f c3bf 5972 963f d6ac b1bf
00000090: f06f 9e3f 878c cb3f b5b4 22c0 0e9e 99bf
000000a0: 9493 2bbf dc26 b03f 34ea 903f 5a0f 92bf
000000b0: 3aa0 1c3f 831b 67bf e0e3 2abf 1933 b6be
000000c0: ab3b 0a3f d479 a2be 8d47 a53f 61a4 993f
000000d0: 1f76 11c0 575c 043f c59c 93be 83b0 4cbe
000000e0: 7232 cc3f 1209 02be 71e3 25c0 b1b5 793f
000000f0: cd90 1b3f 845f d23f d3ad 123d d692 0a40
00000100: b963 6abf 9a2e c93c deb3 d0bf 0cbd edbf
00000110: 8e4e a1bc 3dc6 b13f 1820 e7bf ba44 6c3f
00000120: 5a43 8bbe a16c bbbe 62cd 813e cdc5 c33e
00000130: 4c4a 24bf b5cd b0bf 1d30 0c3e fd71 6c3e
00000140: 91ce f03e 0d37 54be 223c a23e 8309 2ebf
00000150: f01c a8bf 2c0e 56bf 89c0 2f3f d92f 14c0
00000160: bfd7 973d 77aa 66bf 5031 7e3f fa2d e63f
00000170: cd14 01c0 9464 573f 2fc9 c4bf 317a 05bf
00000180: d19a 98bd 417b 7a3e 005c 0440 24d0 13be
00000190: e0e5 483f b524 81bf 1648 9c3f db1c 5dbd
000001a0: bec0 833f 9394 a63f 1ea0 c33f 50de d1bf
000001b0: 8271 28bf 3574 673f 8c27 683f bb97 6b3e
000001c0: 5238 02c0 300a 623f 37d6 32be 1ccd 84be
000001d0: 1411 f23f e48b 853f 30bb 81bf dc22 d3bf
000001e0: 3c6a 9f3f c09a c8bf 294b d33f 1a74 07bf
000001f0: e17b 5dbf 6f22 b93e 1c47 833e b1ca 9abe
00000200: fde2 9ebf 23e3 0b3f 1748 f5bf 383c bfbf
00000210: ff97 4d3d 36d6 0bbf 764f 0c3e d0e1 dcbf
00000220: c013 ca3e 431c 8c3e 09c1 31bf e5a6 12bf
00000230: 8729 c83e 940c 52bf 0365 99be 20d5 983f
00000240: add9 e13e 6fc1 03bf 3d59 c9be 00f3 1dbf
00000250: 43e0 1dc0 3f73 43bd c955 4cbf 8d13 073f
00000260: 6c78 1f3f 03c9 d63e 652d 343e bf7a a3bf
00000270: 9ea2 47be 0958 2c3f 2122 46bf 1b08 53bf
00000280: b7fc 303f 1fdc b03c 1234 05bf 0a90 89bc
00000290: 380e 263f d5d1 abbe 8976 1040 f244 73bf
000002a0: 5c50 89bf 3ee6 e43f b70a 793f b2e5 63bd
000002b0: 6715 8c3f fa98 24c0 4284 babf 6336 7dbf
000002c0: d05e f3be 29fb 38bf 3766 6e3f 187f 90bd
000002d0: 1cdd 22bf 02a9 66be 1b57 0fbf 1159 0ac0
000002e0: 5fab 8f3d 1d0a 583d 6fff 4e3f 2335 1dbf
000002f0: 94f2 f8be 4780 efbe 91d7 49bf e7f4 35bf
00000300: d2bf ee3e 3f3c 6ebf 3cc1 993f 57a5 293f
00000310: b253 9abf 5ed9 80bf 5321 233f 4526 29bf
00000320: c80f 883e 7a67 0fbf 0d87 11c0 5ede 063f
00000330: af3b b23f 0170 7e3f 5ac6 ac3f 59b4 3b3f
00000340: 6f33 8ebf 70d8 cdbe 57ab 6f3f 4513 9dbf
00000350: cf62 a4bf 699b 4fbf c532 f93d 7f74 6f3e
00000360: f2c5 903f 432e 113f b39f 0a3e be9d 86be
00000370: ba1f a53f fef9 863e c2ec 003e 96d5 883e
00000380: 02c3 9bbf 8f71 883f e3a0 46bf c947 3bbf
00000390: a308 2a3e facb 3cbf ffe3 c33e c981 2bbe
000003a0: b541 70bf 2720 9c3f 8681 bd3f b0f7 863f
000003b0: a929 313f bba9 603f 3185 593f f314 863f
000003c0: 12ad 03bf 6128 81bf 5a49 d83e 342a 223e
000003d0: b7d1 903f 45a3 59be e877 0fbf e48d 5e3e
000003e0: 1428 b63d 91b5 adbe e010 a2bf 0d04 3bbf
000003f0: 949b 283e bd2e 6abf 2285 aebf de06 f2bf
